…
log_freq: 20
save_freq: 2
epochs: 10
batch_size: 8
resume: False
seed: None
eval_mode: False
train_mode: True
eval_dir: /datasets/val/
knn_n: 200
knn_t: 0.2
proj_arch: 2048-2048
pred_arch: 512
llm: Qwen3-VL-Embedding-2B
projector: linear
linear_output_dim: 2048
optimizer: adamw
clip_grad_norm: 1.0
base_lr: 0.0003
wd: 0.05
fix_pred_lr: True
momentum: 0.95
warmup: 0.1
beta_0: 0.9
beta_1: 0.999
eps: 1e-08
workers: 16
device: cuda
distributed: False
weak_sample_rate: 0.5
per_device_batch_size: 8
rank: 0
world_size: 1
is_master: True
gpu: None
SimSiam(
  (backbone): TrafficEmbedder(
    (text_embedder): Embedding(151936, 2048)
    (backbone): PeftMixedModel(
      (base_model): MixedModel(
        (model): Qwen3VLForEmbedding(
          (model): Qwen3VLModel(
            (visual): Identity()
            (language_model): Qwen3VLTextModel(
              (embed_tokens): Embedding(151936, 2048)
              (layers): ModuleList(
                (0-27): 28 x Qwen3VLTextDecoderLayer(
                  (self_attn): Qwen3VLTextAttention(
                    (q_proj): lora.Linear(
                      (base_layer): Linear(in_features=2048, out_features=2048, bias=False)
                      (lora_dropout): ModuleDict(
                        (0): Dropout(p=0.05, inplace=False)
                      )
                      (lora_A): ModuleDict(
                        (0): Linear(in_features=2048, out_features=16, bias=False)
                      )
                      (lora_B): ModuleDict(
                        (0): Linear(in_features=16, out_features=2048, bias=False)
                      )
                      (lora_embedding_A): ParameterDict()
                      (lora_embedding_B): ParameterDict()
                      (lora_magnitude_vector): ModuleDict()
                    )
                    (k_proj): lora.Linear(
                      (base_layer): Linear(in_features=2048, out_features=1024, bias=False)
                      (lora_dropout): ModuleDict(
                        (0): Dropout(p=0.05, inplace=False)
                      )
                      (lora_A): ModuleDict(
                        (0): Linear(in_features=2048, out_features=16, bias=False)
                      )
                      (lora_B): ModuleDict(
                        (0): Linear(in_features=16, out_features=1024, bias=False)
                      )
                      (lora_embedding_A): ParameterDict()
                      (lora_embedding_B): ParameterDict()
                      (lora_magnitude_vector): ModuleDict()
                    )
                    (v_proj): lora.Linear(
                      (base_layer): Linear(in_features=2048, out_features=1024, bias=False)
                      (lora_dropout): ModuleDict(
                        (0): Dropout(p=0.05, inplace=False)
                      )
                      (lora_A): ModuleDict(
                        (0): Linear(in_features=2048, out_features=16, bias=False)
                      )
                      (lora_B): ModuleDict(
                        (0): Linear(in_features=16, out_features=1024, bias=False)
                      )
                      (lora_embedding_A): ParameterDict()
                      (lora_embedding_B): ParameterDict()
                      (lora_magnitude_vector): ModuleDict()
                    )
                    (o_proj): lora.Linear(
                      (base_layer): Linear(in_features=2048, out_features=2048, bias=False)
                      (lora_dropout): ModuleDict(
                        (0): Dropout(p=0.05, inplace=False)
                      )
                      (lora_A): ModuleDict(
                        (0): Linear(in_features=2048, out_features=16, bias=False)
                      )
                      (lora_B): ModuleDict(
                        (0): Linear(in_features=16, out_features=2048, bias=False)
                      )
                      (lora_embedding_A): ParameterDict()
                      (lora_embedding_B): ParameterDict()
                      (lora_magnitude_vector): ModuleDict()
                    )
                    (q_norm): Qwen3VLTextRMSNorm((128,), eps=1e-06)
                    (k_norm): Qwen3VLTextRMSNorm((128,), eps=1e-06)
                  )
                  (mlp): Qwen3VLTextMLP(
                    (gate_proj): Linear(in_features=2048, out_features=6144, bias=False)
                    (up_proj): Linear(in_features=2048, out_features=6144, bias=False)
                    (down_proj): Linear(in_features=6144, out_features=2048, bias=False)
                    (act_fn): SiLUActivation()
                  )
                  (input_layernorm): Qwen3VLTextRMSNorm((2048,), eps=1e-06)
                  (post_attention_layernorm): Qwen3VLTextRMSNorm((2048,), eps=1e-06)
                )
              )
              (norm): Qwen3VLTextRMSNorm((2048,), eps=1e-06)
              (rotary_emb): Qwen3VLTextRotaryEmbedding()
            )
          )
        )
      )
    )
    (encoder): Longformer(
      (original_model): LongformerModel(
        (embeddings): LongformerEmbeddings(
          (word_embeddings): Embedding(151669, 768)
          (token_type_embeddings): Embedding(1, 768)
          (LayerNorm): LayerNorm((768,), eps=1e-05, elementwise_affine=True)
          (dropout): Dropout(p=0.1, inplace=False)
          (position_embeddings): Embedding(4098, 768, padding_idx=1)
        )
        (encoder): LongformerEncoder(
          (layer): ModuleList(
            (0-11): 12 x LongformerLayer(
              (attention): LongformerAttention(
                (self): LongformerSelfAttention(
                  (query): Linear(in_features=768, out_features=768, bias=True)
                  (key): Linear(in_features=768, out_features=768, bias=True)
                  (value): Linear(in_features=768, out_features=768, bias=True)
                  (query_global): Linear(in_features=768, out_features=768, bias=True)
                  (key_global): Linear(in_features=768, out_features=768, bias=True)
                  (value_global): Linear(in_features=768, out_features=768, bias=True)
                )
                (output): LongformerSelfOutput(
                  (dense): Linear(in_features=768, out_features=768, bias=True)
                  (LayerNorm): LayerNorm((768,), eps=1e-05, elementwise_affine=True)
                  (dropout): Dropout(p=0.1, inplace=False)
                )
              )
              (intermediate): LongformerIntermediate(
                (dense): Linear(in_features=768, out_features=3072, bias=True)
                (intermediate_act_fn): GELUActivation()
              )
              (output): LongformerOutput(
                (dense): Linear(in_features=3072, out_features=768, bias=True)
                (LayerNorm): LayerNorm((768,), eps=1e-05, elementwise_affine=True)
                (dropout): Dropout(p=0.1, inplace=False)
              )
            )
          )
        )
        (pooler): LongformerPooler(
          (dense): Linear(in_features=768, out_features=768, bias=True)
          (activation): Tanh()
        )
      )
      (fc): Linear(in_features=768, out_features=2048, bias=True)
    )
    (fc): Sequential(
      (0): Linear(in_features=2048, out_features=2048, bias=False)
      (1): BatchNorm1d(2048, eps=1e-05, momentum=0.1, affine=True, track_running_stats=True)
      (2): ReLU(inplace=True)
      (3): Linear(in_features=2048, out_features=2048, bias=False)
      (4): BatchNorm1d(2048, eps=1e-05, momentum=0.1, affine=True, track_running_stats=True)
      (5): ReLU(inplace=True)
      (6): Linear(in_features=2048, out_features=2048, bias=True)
      (7): BatchNorm1d(2048, eps=1e-05, momentum=0.1, affine=False, track_running_stats=True)
    )
  )
  (predictor): Sequential(
    (0): Linear(in_features=2048, out_features=512, bias=False)
    (1): BatchNorm1d(512, eps=1e-05, momentum=0.1, affine=True, track_running_stats=True)
    (2): ReLU(inplace=True)
    (3): Linear(in_features=512, out_features=2048, bias=True)
  )
)
未找到 id2label.json（可选）
正在从 64 个文件中加载数据...
成功加载 60000 个样本
/home/changc/miniconda3/envs/bishe/lib/python3.12/site-packages/torch/utils/data/dataloader.py:627: UserWarning: This DataLoader will create 16 worker processes in total. Our suggested max number of worker in current system is 1, which is smaller than what this DataLoader is going to create. Please be aware that excessive worker creation might get DataLoader running slow or even freeze, lower the worker number to avoid potential slowness/freeze if necessary.
…
