…
compile_mode: reduce-overhead
single_gpu: False
flash_attn: True
rank: 0
world_size: 1
is_master: True
gpu: None
per_device_batch_size: 1
per_device_batch_size_t: 1
Loading checkpoint shards:   0%|          | 0/4 [00:00<?, ?it/s]Loading checkpoint shards:  25%|██▌       | 1/4 [00:00<00:01,  2.20it/s]Loading checkpoint shards:  50%|█████     | 2/4 [00:00<00:00,  2.29it/s]Loading checkpoint shards:  75%|███████▌  | 3/4 [00:01<00:00,  2.33it/s]Loading checkpoint shards: 100%|██████████| 4/4 [00:01<00:00,  2.79it/s]Loading checkpoint shards: 100%|██████████| 4/4 [00:01<00:00,  2.58it/s]
ProposeModel(
  (text_embedder): Embedding(151936, 4096)
  (encoder): Longformer(
    (original_model): LongformerModel(
      (embeddings): LongformerEmbeddings(
        (word_embeddings): Embedding(151669, 768)
        (token_type_embeddings): Embedding(1, 768)
        (LayerNorm): LayerNorm((768,), eps=1e-05, elementwise_affine=True)
        (dropout): Dropout(p=0.1, inplace=False)
        (position_embeddings): Embedding(4098, 768, padding_idx=1)
      )
      (encoder): LongformerEncoder(
        (layer): ModuleList(
          (0-11): 12 x LongformerLayer(
            (attention): LongformerAttention(
              (self): LongformerSelfAttention(
                (query): Linear(in_features=768, out_features=768, bias=True)
                (key): Linear(in_features=768, out_features=768, bias=True)
                (value): Linear(in_features=768, out_features=768, bias=True)
                (query_global): Linear(in_features=768, out_features=768, bias=True)
                (key_global): Linear(in_features=768, out_features=768, bias=True)
                (value_global): Linear(in_features=768, out_features=768, bias=True)
              )
              (output): LongformerSelfOutput(
                (dense): Linear(in_features=768, out_features=768, bias=True)
                (LayerNorm): LayerNorm((768,), eps=1e-05, elementwise_affine=True)
                (dropout): Dropout(p=0.1, inplace=False)
              )
            )
            (intermediate): LongformerIntermediate(
              (dense): Linear(in_features=768, out_features=3072, bias=True)
              (intermediate_act_fn): GELUActivation()
            )
            (output): LongformerOutput(
              (dense): Linear(in_features=3072, out_features=768, bias=True)
              (LayerNorm): LayerNorm((768,), eps=1e-05, elementwise_affine=True)
              (dropout): Dropout(p=0.1, inplace=False)
            )
          )
        )
      )
      (pooler): LongformerPooler(
        (dense): Linear(in_features=768, out_features=768, bias=True)
        (activation): Tanh()
      )
    )
    (fc): Linear(in_features=768, out_features=4096, bias=True)
  )
  (backbone): PeftMixedModel(
    (base_model): MixedModel(
      (model): Qwen3VLForConditionalGeneration(
        (model): Qwen3VLModel(
          (visual): Identity()
          (language_model): Qwen3VLTextModel(
            (embed_tokens): Embedding(151936, 4096)
            (layers): ModuleList(
              (0-35): 36 x Qwen3VLTextDecoderLayer(
                (self_attn): Qwen3VLTextAttention(
                  (q_proj): lora.Linear(
                    (base_layer): Linear(in_features=4096, out_features=4096, bias=False)
                    (lora_dropout): ModuleDict(
                      (0): Dropout(p=0.05, inplace=False)
                      (1): Dropout(p=0.05, inplace=False)
                    )
                    (lora_A): ModuleDict(
                      (0): Linear(in_features=4096, out_features=16, bias=False)
                      (1): Linear(in_features=4096, out_features=16, bias=False)
                    )
                    (lora_B): ModuleDict(
                      (0): Linear(in_features=16, out_features=4096, bias=False)
                      (1): Linear(in_features=16, out_features=4096, bias=False)
                    )
                    (lora_embedding_A): ParameterDict()
                    (lora_embedding_B): ParameterDict()
                    (lora_magnitude_vector): ModuleDict()
                  )
                  (k_proj): lora.Linear(
                    (base_layer): Linear(in_features=4096, out_features=1024, bias=False)
                    (lora_dropout): ModuleDict(
                      (0): Dropout(p=0.05, inplace=False)
                      (1): Dropout(p=0.05, inplace=False)
                    )
                    (lora_A): ModuleDict(
                      (0): Linear(in_features=4096, out_features=16, bias=False)
                      (1): Linear(in_features=4096, out_features=16, bias=False)
                    )
                    (lora_B): ModuleDict(
                      (0): Linear(in_features=16, out_features=1024, bias=False)
                      (1): Linear(in_features=16, out_features=1024, bias=False)
                    )
                    (lora_embedding_A): ParameterDict()
                    (lora_embedding_B): ParameterDict()
                    (lora_magnitude_vector): ModuleDict()
                  )
                  (v_proj): lora.Linear(
                    (base_layer): Linear(in_features=4096, out_features=1024, bias=False)
                    (lora_dropout): ModuleDict(
                      (0): Dropout(p=0.05, inplace=False)
                      (1): Dropout(p=0.05, inplace=False)
                    )
                    (lora_A): ModuleDict(
                      (0): Linear(in_features=4096, out_features=16, bias=False)
                      (1): Linear(in_features=4096, out_features=16, bias=False)
                    )
                    (lora_B): ModuleDict(
                      (0): Linear(in_features=16, out_features=1024, bias=False)
                      (1): Linear(in_features=16, out_features=1024, bias=False)
                    )
                    (lora_embedding_A): ParameterDict()
                    (lora_embedding_B): ParameterDict()
                    (lora_magnitude_vector): ModuleDict()
                  )
                  (o_proj): lora.Linear(
                    (base_layer): Linear(in_features=4096, out_features=4096, bias=False)
                    (lora_dropout): ModuleDict(
                      (0): Dropout(p=0.05, inplace=False)
                      (1): Dropout(p=0.05, inplace=False)
                    )
                    (lora_A): ModuleDict(
                      (0): Linear(in_features=4096, out_features=16, bias=False)
                      (1): Linear(in_features=4096, out_features=16, bias=False)
                    )
                    (lora_B): ModuleDict(
                      (0): Linear(in_features=16, out_features=4096, bias=False)
                      (1): Linear(in_features=16, out_features=4096, bias=False)
                    )
                    (lora_embedding_A): ParameterDict()
                    (lora_embedding_B): ParameterDict()
                    (lora_magnitude_vector): ModuleDict()
                  )
                  (q_norm): Qwen3VLTextRMSNorm((128,), eps=1e-06)
                  (k_norm): Qwen3VLTextRMSNorm((128,), eps=1e-06)
                )
                (mlp): Qwen3VLTextMLP(
                  (gate_proj): Linear(in_features=4096, out_features=12288, bias=False)
                  (up_proj): Linear(in_features=4096, out_features=12288, bias=False)
                  (down_proj): Linear(in_features=12288, out_features=4096, bias=False)
                  (act_fn): SiLUActivation()
                )
                (input_layernorm): Qwen3VLTextRMSNorm((4096,), eps=1e-06)
                (post_attention_layernorm): Qwen3VLTextRMSNorm((4096,), eps=1e-06)
              )
            )
            (norm): Qwen3VLTextRMSNorm((4096,), eps=1e-06)
            (rotary_emb): Qwen3VLTextRotaryEmbedding()
          )
        )
        (lm_head): Linear(in_features=4096, out_features=151936, bias=False)
      )
    )
  )
)
backbone.base_model.model.model.language_model.layers.0.self_attn.q_proj.lora_A.1.weight
backbone.base_model.model.model.language_model.layers.0.self_attn.q_proj.lora_B.1.weight
backbone.base_model.model.model.language_model.layers.0.self_attn.k_proj.lora_A.1.weight
backbone.base_model.model.model.language_model.layers.0.self_attn.k_proj.lora_B.1.weight
…
constant: False
reduce_on_plateau: False
num_cycles: 0.5
min_lr: None
accumulation_steps: 16
projector: linear
linear_output_dim: 4096
llm: Qwen3-VL-8B-Instruct
workers: 1
device: cuda
distributed: False
amp: True
amp_dtype: bf16
tf32: False
split_layers_num: 20
compile: False
compile_mode: reduce-overhead
single_gpu: False
flash_attn: True
rank: 0
world_size: 1
is_master: True
gpu: None
per_device_batch_size: 1
per_device_batch_size_t: 1
Loading checkpoint shards:   0%|          | 0/4 [00:00<?, ?it/s]Loading checkpoint shards: 100%|██████████| 4/4 [00:00<00:00, 84.65it/s]
ProposeModel(
  (text_embedder): Embedding(151936, 4096)
  (encoder): Longformer(
    (original_model): LongformerModel(
      (embeddings): LongformerEmbeddings(
        (word_embeddings): Embedding(151669, 768)
        (token_type_embeddings): Embedding(1, 768)
        (LayerNorm): LayerNorm((768,), eps=1e-05, elementwise_affine=True)
        (dropout): Dropout(p=0.1, inplace=False)
        (position_embeddings): Embedding(4098, 768, padding_idx=1)
      )
      (encoder): LongformerEncoder(
        (layer): ModuleList(
          (0-11): 12 x LongformerLayer(
            (attention): LongformerAttention(
              (self): LongformerSelfAttention(
                (query): Linear(in_features=768, out_features=768, bias=True)
                (key): Linear(in_features=768, out_features=768, bias=True)
                (value): Linear(in_features=768, out_features=768, bias=True)
                (query_global): Linear(in_features=768, out_features=768, bias=True)
                (key_global): Linear(in_features=768, out_features=768, bias=True)
                (value_global): Linear(in_features=768, out_features=768, bias=True)
              )
              (output): LongformerSelfOutput(
                (dense): Linear(in_features=768, out_features=768, bias=True)
                (LayerNorm): LayerNorm((768,), eps=1e-05, elementwise_affine=True)
                (dropout): Dropout(p=0.1, inplace=False)
              )
            )
            (intermediate): LongformerIntermediate(
              (dense): Linear(in_features=768, out_features=3072, bias=True)
              (intermediate_act_fn): GELUActivation()
            )
            (output): LongformerOutput(
              (dense): Linear(in_features=3072, out_features=768, bias=True)
              (LayerNorm): LayerNorm((768,), eps=1e-05, elementwise_affine=True)
              (dropout): Dropout(p=0.1, inplace=False)
            )
          )
        )
      )
      (pooler): LongformerPooler(
        (dense): Linear(in_features=768, out_features=768, bias=True)
        (activation): Tanh()
      )
    )
    (fc): Linear(in_features=768, out_features=4096, bias=True)
  )
  (backbone): PeftMixedModel(
    (base_model): MixedModel(
      (model): Qwen3VLForConditionalGeneration(
        (model): Qwen3VLModel(
          (visual): Identity()
          (language_model): Qwen3VLTextModel(
            (embed_tokens): Embedding(151936, 4096)
            (layers): ModuleList(
              (0-35): 36 x Qwen3VLTextDecoderLayer(
                (self_attn): Qwen3VLTextAttention(
                  (q_proj): lora.Linear(
                    (base_layer): Linear(in_features=4096, out_features=4096, bias=False)
                    (lora_dropout): ModuleDict(
                      (0): Dropout(p=0.05, inplace=False)
                      (1): Dropout(p=0.05, inplace=False)
                    )
                    (lora_A): ModuleDict(
                      (0): Linear(in_features=4096, out_features=16, bias=False)
                      (1): Linear(in_features=4096, out_features=16, bias=False)
                    )
                    (lora_B): ModuleDict(
                      (0): Linear(in_features=16, out_features=4096, bias=False)
                      (1): Linear(in_features=16, out_features=4096, bias=False)
                    )
                    (lora_embedding_A): ParameterDict()
                    (lora_embedding_B): ParameterDict()
                    (lora_magnitude_vector): ModuleDict()
                  )
                  (k_proj): lora.Linear(
                    (base_layer): Linear(in_features=4096, out_features=1024, bias=False)
                    (lora_dropout): ModuleDict(
                      (0): Dropout(p=0.05, inplace=False)
                      (1): Dropout(p=0.05, inplace=False)
                    )
                    (lora_A): ModuleDict(
                      (0): Linear(in_features=4096, out_features=16, bias=False)
                      (1): Linear(in_features=4096, out_features=16, bias=False)
                    )
                    (lora_B): ModuleDict(
                      (0): Linear(in_features=16, out_features=1024, bias=False)
                      (1): Linear(in_features=16, out_features=1024, bias=False)
                    )
                    (lora_embedding_A): ParameterDict()
                    (lora_embedding_B): ParameterDict()
                    (lora_magnitude_vector): ModuleDict()
                  )
                  (v_proj): lora.Linear(
                    (base_layer): Linear(in_features=4096, out_features=1024, bias=False)
                    (lora_dropout): ModuleDict(
                      (0): Dropout(p=0.05, inplace=False)
                      (1): Dropout(p=0.05, inplace=False)
                    )
                    (lora_A): ModuleDict(
                      (0): Linear(in_features=4096, out_features=16, bias=False)
                      (1): Linear(in_features=4096, out_features=16, bias=False)
                    )
                    (lora_B): ModuleDict(
                      (0): Linear(in_features=16, out_features=1024, bias=False)
                      (1): Linear(in_features=16, out_features=1024, bias=False)
                    )
                    (lora_embedding_A): ParameterDict()
                    (lora_embedding_B): ParameterDict()
                    (lora_magnitude_vector): ModuleDict()
                  )
                  (o_proj): lora.Linear(
                    (base_layer): Linear(in_features=4096, out_features=4096, bias=False)
                    (lora_dropout): ModuleDict(
                      (0): Dropout(p=0.05, inplace=False)
                      (1): Dropout(p=0.05, inplace=False)
                    )
                    (lora_A): ModuleDict(
                      (0): Linear(in_features=4096, out_features=16, bias=False)
                      (1): Linear(in_features=4096, out_features=16, bias=False)
                    )
                    (lora_B): ModuleDict(
                      (0): Linear(in_features=16, out_features=4096, bias=False)
                      (1): Linear(in_features=16, out_features=4096, bias=False)
                    )
                    (lora_embedding_A): ParameterDict()
                    (lora_embedding_B): ParameterDict()
                    (lora_magnitude_vector): ModuleDict()
                  )
                  (q_norm): Qwen3VLTextRMSNorm((128,), eps=1e-06)
                  (k_norm): Qwen3VLTextRMSNorm((128,), eps=1e-06)
                )
                (mlp): Qwen3VLTextMLP(
                  (gate_proj): Linear(in_features=4096, out_features=12288, bias=False)
                  (up_proj): Linear(in_features=4096, out_features=12288, bias=False)
                  (down_proj): Linear(in_features=12288, out_features=4096, bias=False)
                  (act_fn): SiLUActivation()
                )
                (input_layernorm): Qwen3VLTextRMSNorm((4096,), eps=1e-06)
                (post_attention_layernorm): Qwen3VLTextRMSNorm((4096,), eps=1e-06)
              )
            )
            (norm): Qwen3VLTextRMSNorm((4096,), eps=1e-06)
            (rotary_emb): Qwen3VLTextRotaryEmbedding()
          )
        )
        (lm_head): Linear(in_features=4096, out_features=151936, bias=False)
      )
    )
  )
  (classifier): Linear(in_features=4096, out_features=14, bias=True)
)
正在从 14 个文件中加载数据...
成功加载 5600 个样本
未找到 id2label.json（可选）
正在从 14 个文件中加载数据...
成功加载 5600 个样本
未找到 id2label.json（可选）
Mixed precision (AMP) enabled, dtype=bf16.
Scheduler: total_steps=3500, warmup_steps=350.0, passed_steps=0
`use_cache=True` is incompatible with gradient checkpointing. Setting `use_cache=False`.
Input ids are automatically padded to be a multiple of `config.attention_window`: 512
…
constant: False
reduce_on_plateau: False
num_cycles: 0.5
min_lr: None
accumulation_steps: 16
projector: linear
linear_output_dim: 4096
llm: Qwen3-VL-8B-Instruct
workers: 1
device: cuda
distributed: False
amp: True
amp_dtype: bf16
tf32: False
split_layers_num: 20
compile: False
compile_mode: reduce-overhead
single_gpu: True
flash_attn: True
rank: 0
world_size: 1
is_master: True
gpu: None
per_device_batch_size: 1
per_device_batch_size_t: 1
Loading checkpoint shards:   0%|          | 0/4 [00:00<?, ?it/s]Loading checkpoint shards: 100%|██████████| 4/4 [00:00<00:00, 85.21it/s]
ProposeModel(
  (text_embedder): Embedding(151936, 4096)
  (encoder): Longformer(
    (original_model): LongformerModel(
      (embeddings): LongformerEmbeddings(
        (word_embeddings): Embedding(151669, 768)
        (token_type_embeddings): Embedding(1, 768)
        (LayerNorm): LayerNorm((768,), eps=1e-05, elementwise_affine=True)
        (dropout): Dropout(p=0.1, inplace=False)
        (position_embeddings): Embedding(4098, 768, padding_idx=1)
      )
      (encoder): LongformerEncoder(
        (layer): ModuleList(
          (0-11): 12 x LongformerLayer(
            (attention): LongformerAttention(
              (self): LongformerSelfAttention(
                (query): Linear(in_features=768, out_features=768, bias=True)
                (key): Linear(in_features=768, out_features=768, bias=True)
                (value): Linear(in_features=768, out_features=768, bias=True)
                (query_global): Linear(in_features=768, out_features=768, bias=True)
                (key_global): Linear(in_features=768, out_features=768, bias=True)
                (value_global): Linear(in_features=768, out_features=768, bias=True)
              )
              (output): LongformerSelfOutput(
                (dense): Linear(in_features=768, out_features=768, bias=True)
                (LayerNorm): LayerNorm((768,), eps=1e-05, elementwise_affine=True)
                (dropout): Dropout(p=0.1, inplace=False)
              )
            )
            (intermediate): LongformerIntermediate(
              (dense): Linear(in_features=768, out_features=3072, bias=True)
              (intermediate_act_fn): GELUActivation()
            )
            (output): LongformerOutput(
              (dense): Linear(in_features=3072, out_features=768, bias=True)
              (LayerNorm): LayerNorm((768,), eps=1e-05, elementwise_affine=True)
              (dropout): Dropout(p=0.1, inplace=False)
            )
          )
        )
      )
      (pooler): LongformerPooler(
        (dense): Linear(in_features=768, out_features=768, bias=True)
        (activation): Tanh()
      )
    )
    (fc): Linear(in_features=768, out_features=4096, bias=True)
  )
  (backbone): PeftMixedModel(
    (base_model): MixedModel(
      (model): Qwen3VLForConditionalGeneration(
        (model): Qwen3VLModel(
          (visual): Identity()
          (language_model): Qwen3VLTextModel(
            (embed_tokens): Embedding(151936, 4096)
            (layers): ModuleList(
              (0-35): 36 x Qwen3VLTextDecoderLayer(
                (self_attn): Qwen3VLTextAttention(
                  (q_proj): lora.Linear(
                    (base_layer): Linear(in_features=4096, out_features=4096, bias=False)
                    (lora_dropout): ModuleDict(
                      (0): Dropout(p=0.05, inplace=False)
                      (1): Dropout(p=0.05, inplace=False)
                    )
                    (lora_A): ModuleDict(
                      (0): Linear(in_features=4096, out_features=16, bias=False)
                      (1): Linear(in_features=4096, out_features=16, bias=False)
                    )
                    (lora_B): ModuleDict(
                      (0): Linear(in_features=16, out_features=4096, bias=False)
                      (1): Linear(in_features=16, out_features=4096, bias=False)
                    )
                    (lora_embedding_A): ParameterDict()
                    (lora_embedding_B): ParameterDict()
                    (lora_magnitude_vector): ModuleDict()
                  )
                  (k_proj): lora.Linear(
                    (base_layer): Linear(in_features=4096, out_features=1024, bias=False)
                    (lora_dropout): ModuleDict(
                      (0): Dropout(p=0.05, inplace=False)
                      (1): Dropout(p=0.05, inplace=False)
                    )
                    (lora_A): ModuleDict(
                      (0): Linear(in_features=4096, out_features=16, bias=False)
                      (1): Linear(in_features=4096, out_features=16, bias=False)
                    )
                    (lora_B): ModuleDict(
                      (0): Linear(in_features=16, out_features=1024, bias=False)
                      (1): Linear(in_features=16, out_features=1024, bias=False)
                    )
                    (lora_embedding_A): ParameterDict()
                    (lora_embedding_B): ParameterDict()
                    (lora_magnitude_vector): ModuleDict()
                  )
                  (v_proj): lora.Linear(
                    (base_layer): Linear(in_features=4096, out_features=1024, bias=False)
                    (lora_dropout): ModuleDict(
                      (0): Dropout(p=0.05, inplace=False)
                      (1): Dropout(p=0.05, inplace=False)
                    )
                    (lora_A): ModuleDict(
                      (0): Linear(in_features=4096, out_features=16, bias=False)
                      (1): Linear(in_features=4096, out_features=16, bias=False)
                    )
                    (lora_B): ModuleDict(
                      (0): Linear(in_features=16, out_features=1024, bias=False)
                      (1): Linear(in_features=16, out_features=1024, bias=False)
                    )
                    (lora_embedding_A): ParameterDict()
                    (lora_embedding_B): ParameterDict()
                    (lora_magnitude_vector): ModuleDict()
                  )
                  (o_proj): lora.Linear(
                    (base_layer): Linear(in_features=4096, out_features=4096, bias=False)
                    (lora_dropout): ModuleDict(
                      (0): Dropout(p=0.05, inplace=False)
                      (1): Dropout(p=0.05, inplace=False)
                    )
                    (lora_A): ModuleDict(
                      (0): Linear(in_features=4096, out_features=16, bias=False)
                      (1): Linear(in_features=4096, out_features=16, bias=False)
                    )
                    (lora_B): ModuleDict(
                      (0): Linear(in_features=16, out_features=4096, bias=False)
                      (1): Linear(in_features=16, out_features=4096, bias=False)
                    )
                    (lora_embedding_A): ParameterDict()
                    (lora_embedding_B): ParameterDict()
                    (lora_magnitude_vector): ModuleDict()
                  )
                  (q_norm): Qwen3VLTextRMSNorm((128,), eps=1e-06)
                  (k_norm): Qwen3VLTextRMSNorm((128,), eps=1e-06)
                )
                (mlp): Qwen3VLTextMLP(
                  (gate_proj): Linear(in_features=4096, out_features=12288, bias=False)
                  (up_proj): Linear(in_features=4096, out_features=12288, bias=False)
                  (down_proj): Linear(in_features=12288, out_features=4096, bias=False)
                  (act_fn): SiLUActivation()
                )
                (input_layernorm): Qwen3VLTextRMSNorm((4096,), eps=1e-06)
                (post_attention_layernorm): Qwen3VLTextRMSNorm((4096,), eps=1e-06)
              )
            )
            (norm): Qwen3VLTextRMSNorm((4096,), eps=1e-06)
            (rotary_emb): Qwen3VLTextRotaryEmbedding()
          )
        )
        (lm_head): Linear(in_features=4096, out_features=151936, bias=False)
      )
    )
  )
  (classifier): Linear(in_features=4096, out_features=27, bias=True)
)
正在从 27 个文件中加载数据...
成功加载 10800 个样本
未找到 id2label.json（可选）
Mixed precision (AMP) enabled, dtype=bf16.
Scheduler: total_steps=6750, warmup_steps=675.0, passed_steps=0
Epoch 0: dom_loss_weight=0.231059
Input ids are automatically padded to be a multiple of `config.attention_window`: 512
`use_cache=True` is incompatible with gradient checkpointing. Setting `use_cache=False`.
…
