ProposeModel(
  (encoder): Longformer(
    (original_model): LongformerModel(
      (embeddings): LongformerEmbeddings(
        (word_embeddings): Embedding(151669, 768)
        (token_type_embeddings): Embedding(1, 768)
        (LayerNorm): LayerNorm((768,), eps=1e-05, elementwise_affine=True)
        (dropout): Dropout(p=0.1, inplace=False)
        (position_embeddings): Embedding(4098, 768, padding_idx=1)
      )
      (encoder): LongformerEncoder(
        (layer): ModuleList(
          (0-11): 12 x LongformerLayer(
            (attention): LongformerAttention(
              (self): LongformerSelfAttention(
                (query): Linear(in_features=768, out_features=768, bias=True)
                (key): Linear(in_features=768, out_features=768, bias=True)
                (value): Linear(in_features=768, out_features=768, bias=True)
                (query_global): Linear(in_features=768, out_features=768, bias=True)
                (key_global): Linear(in_features=768, out_features=768, bias=True)
                (value_global): Linear(in_features=768, out_features=768, bias=True)
              )
              (output): LongformerSelfOutput(
                (dense): Linear(in_features=768, out_features=768, bias=True)
                (LayerNorm): LayerNorm((768,), eps=1e-05, elementwise_affine=True)
                (dropout): Dropout(p=0.1, inplace=False)
              )
            )
            (intermediate): LongformerIntermediate(
              (dense): Linear(in_features=768, out_features=3072, bias=True)
              (intermediate_act_fn): GELUActivation()
            )
            (output): LongformerOutput(
              (dense): Linear(in_features=3072, out_features=768, bias=True)
              (LayerNorm): LayerNorm((768,), eps=1e-05, elementwise_affine=True)
              (dropout): Dropout(p=0.1, inplace=False)
            )
          )
        )
      )
      (pooler): LongformerPooler(
        (dense): Linear(in_features=768, out_features=768, bias=True)
        (activation): Tanh()
      )
    )
    (fc): Linear(in_features=768, out_features=4096, bias=True)
  )
  (text_embedder): Embedding(151936, 4096)
  (backbone): PeftModelForCausalLM(
    (base_model): LoraModel(
      (model): Qwen3VLForConditionalGeneration(
        (model): Qwen3VLModel(
          (visual): Qwen3VLVisionModel(
            (patch_embed): Qwen3VLVisionPatchEmbed(
              (proj): Conv3d(3, 1152, kernel_size=(2, 16, 16), stride=(2, 16, 16))
            )
            (pos_embed): Embedding(2304, 1152)
            (rotary_pos_emb): Qwen3VLVisionRotaryEmbedding()
            (blocks): ModuleList(
              (0-26): 27 x Qwen3VLVisionBlock(
                (norm1): LayerNorm((1152,), eps=1e-06, elementwise_affine=True)
                (norm2): LayerNorm((1152,), eps=1e-06, elementwise_affine=True)
                (attn): Qwen3VLVisionAttention(
                  (qkv): Linear(in_features=1152, out_features=3456, bias=True)
                  (proj): Linear(in_features=1152, out_features=1152, bias=True)
                )
                (mlp): Qwen3VLVisionMLP(
                  (linear_fc1): Linear(in_features=1152, out_features=4304, bias=True)
                  (linear_fc2): Linear(in_features=4304, out_features=1152, bias=True)
                  (act_fn): GELUTanh()
                )
              )
            )
            (merger): Qwen3VLVisionPatchMerger(
              (norm): LayerNorm((1152,), eps=1e-06, elementwise_affine=True)
              (linear_fc1): Linear(in_features=4608, out_features=4608, bias=True)
              (act_fn): GELU(approximate='none')
              (linear_fc2): Linear(in_features=4608, out_features=4096, bias=True)
            )
            (deepstack_merger_list): ModuleList(
              (0-2): 3 x Qwen3VLVisionPatchMerger(
                (norm): LayerNorm((4608,), eps=1e-06, elementwise_affine=True)
                (linear_fc1): Linear(in_features=4608, out_features=4608, bias=True)
                (act_fn): GELU(approximate='none')
                (linear_fc2): Linear(in_features=4608, out_features=4096, bias=True)
              )
            )
          )
          (language_model): Qwen3VLTextModel(
            (embed_tokens): Embedding(151936, 4096)
            (layers): ModuleList(
              (0-35): 36 x Qwen3VLTextDecoderLayer(
                (self_attn): Qwen3VLTextAttention(
                  (q_proj): lora.Linear(
                    (base_layer): Linear(in_features=4096, out_features=4096, bias=False)
                    (lora_dropout): ModuleDict(
                      (default): Dropout(p=0.05, inplace=False)
                    )
                    (lora_A): ModuleDict(
                      (default): Linear(in_features=4096, out_features=16, bias=False)
                    )
                    (lora_B): ModuleDict(
                      (default): Linear(in_features=16, out_features=4096, bias=False)
                    )
                    (lora_embedding_A): ParameterDict()
                    (lora_embedding_B): ParameterDict()
                    (lora_magnitude_vector): ModuleDict()
                  )
                  (k_proj): lora.Linear(
                    (base_layer): Linear(in_features=4096, out_features=1024, bias=False)
                    (lora_dropout): ModuleDict(
                      (default): Dropout(p=0.05, inplace=False)
                    )
                    (lora_A): ModuleDict(
                      (default): Linear(in_features=4096, out_features=16, bias=False)
                    )
                    (lora_B): ModuleDict(
                      (default): Linear(in_features=16, out_features=1024, bias=False)
                    )
                    (lora_embedding_A): ParameterDict()
                    (lora_embedding_B): ParameterDict()
                    (lora_magnitude_vector): ModuleDict()
                  )
                  (v_proj): lora.Linear(
                    (base_layer): Linear(in_features=4096, out_features=1024, bias=False)
                    (lora_dropout): ModuleDict(
                      (default): Dropout(p=0.05, inplace=False)
                    )
                    (lora_A): ModuleDict(
                      (default): Linear(in_features=4096, out_features=16, bias=False)
                    )
                    (lora_B): ModuleDict(
                      (default): Linear(in_features=16, out_features=1024, bias=False)
                    )
                    (lora_embedding_A): ParameterDict()
                    (lora_embedding_B): ParameterDict()
                    (lora_magnitude_vector): ModuleDict()
                  )
                  (o_proj): lora.Linear(
                    (base_layer): Linear(in_features=4096, out_features=4096, bias=False)
                    (lora_dropout): ModuleDict(
                      (default): Dropout(p=0.05, inplace=False)
                    )
                    (lora_A): ModuleDict(
                      (default): Linear(in_features=4096, out_features=16, bias=False)
                    )
                    (lora_B): ModuleDict(
                      (default): Linear(in_features=16, out_features=4096, bias=False)
                    )
                    (lora_embedding_A): ParameterDict()
                    (lora_embedding_B): ParameterDict()
                    (lora_magnitude_vector): ModuleDict()
                  )
                  (q_norm): Qwen3VLTextRMSNorm((128,), eps=1e-06)
                  (k_norm): Qwen3VLTextRMSNorm((128,), eps=1e-06)
                )
                (mlp): Qwen3VLTextMLP(
                  (gate_proj): Linear(in_features=4096, out_features=12288, bias=False)
                  (up_proj): Linear(in_features=4096, out_features=12288, bias=False)
                  (down_proj): Linear(in_features=12288, out_features=4096, bias=False)
                  (act_fn): SiLUActivation()
                )
                (input_layernorm): Qwen3VLTextRMSNorm((4096,), eps=1e-06)
                (post_attention_layernorm): Qwen3VLTextRMSNorm((4096,), eps=1e-06)
              )
            )
            (norm): Qwen3VLTextRMSNorm((4096,), eps=1e-06)
            (rotary_emb): Qwen3VLTextRotaryEmbedding()
          )
        )
        (lm_head): Linear(in_features=4096, out_features=151936, bias=False)
      )
    )
  )
)

ProposeModel
encoder
Longformer
encoder.original_model
LongformerModel
encoder.original_model.embeddings
LongformerEmbeddings
encoder.original_model.embeddings.word_embeddings
Embedding
encoder.original_model.embeddings.token_type_embeddings
Embedding
encoder.original_model.embeddings.LayerNorm
LayerNorm
encoder.original_model.embeddings.dropout
…
